model/happy-cnn.pth (torch, 153569 bytes, 7 tensors)

conv.weight f4 [32, 3, 7, 7]
0	0x3c4efc73	0.012633431
1	0xbc2f7325	-0.010708605
2	0xbcfa7ea3	-0.030577963
3	0x3cb55e6f	0.022139756
4	0x3c84870e	0.01617768
5	0xbc5572a2	-0.013027819
6	0x3da01e58	0.078182876
7	0xbd8c6f64	-0.068571836
8	0xbda23003	-0.07919314
9	0x3d49cfde	0.049270503
10	0x3c63f936	0.013914397
11	0x3cddab3c	0.02705919
12	0xbd105ba9	-0.035243664
13	0x3d98c5fa	0.07459636
14	0xbcb8bd78	-0.022551283
15	0xbcefcecb	-0.029273411
16	0xbd6432f8	-0.05571267
17	0x3c46860d	0.012116921
18	0x3d9061ca	0.07049902
19	0x3c5f3ab0	0.013624832
20	0x3cd987ac	0.026553951
21	0xbcdfc62e	-0.02731618
22	0xbd8eadc7	-0.06966739
23	0x3c4180b4	0.01181047
24	0xbd2a7693	-0.041616987
25	0xbcf7123e	-0.030160066
26	0xbd8a43b6	-0.06751196
27	0x3ccbee97	0.024894042
28	0x3d85312e	0.06503521
29	0xbc96bfa0	-0.01840192
30	0x381b46dc	3.7020873e-05
31	0x3d33c1c4	0.04388596
32	0xb78c9610	-1.6759179e-05
33	0x3cfa04ec	0.030519925
34	0xbc6abfbe	-0.014327941
35	0x3c3d8a18	0.011568569
36	0xbdaa21a7	-0.083072
37	0xbd334ef0	-0.043776453
38	0xbd059b78	-0.03261897
39	0xbd4ebfcb	-0.050475877
40	0x3d3740a4	0.04473938
41	0xbd98b179	-0.07455725
42	0xbd281af8	-0.041041344
43	0xbad78958	-0.001644413
44	0xbcde43dc	-0.027131967
45	0xbd6b7a12	-0.057489462
46	0xbd3866b3	-0.045019817
47	0x3cc4ffd5	0.024047771
48	0xbd5df147	-0.054185178
49	0xbd531a8e	-0.051538996
50	0x3d40feca	0.047117986
51	0xbce0d1d3	-0.027443802
52	0x3c488401	0.012238503
53	0x3d0465e2	0.032323726
54	0x3c95cf64	0.018287368
55	0x3c42a372	0.011879789
56	0xbcb878ca	-0.022518534
57	0xbdaaa733	-0.08332672
58	0xbcd186d6	-0.02557699
59	0x3cde2145	0.027115474
60	0x3c6d82f4	0.014496554
61	0x3d8a6b9d	0.06758807
62	0x3cb9036b	0.022584638
63	0xbd9d0fa0	-0.07668996
64	0x3d856b18	0.06514567
65	0x3cfed069	0.031105237
66	0xbd01f033	-0.031723212
67	0xbd7d7154	-0.061875656
68	0x3ce0b07a	0.0274279
69	0xbcf71272	-0.030160163
70	0x3d7d6f86	0.061873935
71	0x3c8f1a8f	0.017468719
72	0xbcaee901	-0.02135134
73	0x3d15f9ec	0.036615297
74	0xbd5de2dc	-0.054171428
75	0xbd88fc33	-0.06688728
76	0xbb11b001	-0.002223015
77	0x3d1e794c	0.038689896
78	0xbd4ee70b	-0.05051331
79	0x3d6ea58d	0.05826335
80	0x3c4e15ff	0.012578486
81	0x3d87f4dd	0.06638501
82	0xbbb19e84	-0.005420508
83	0x3d6cdef6	0.05782982
84	0x3d0229ed	0.031778265
85	0xbb22e29f	-0.0024854315
86	0x3d1f6c75	0.038921792
87	0xbd57a050	-0.05264312
88	0xbc3a8273	-0.011383641
89	0xbd8d064a	-0.06885965
90	0x3cd7929c	0.026315026
91	0x3da02762	0.07820012
92	0xbd58dcfc	-0.052945122
93	0xbd9bfa72	-0.07616128
94	0xbca1967d	-0.019725079
95	0xbd2e7bb6	-0.04259845
96	0x3ce4fdb9	0.027953016
97	0xbd582087	-0.052765395
98	0x3d493c72	0.04912991
99	0x3d6c872b	0.057746094
100	0x3d1cf6f1	0.03832144
101	0xbd8bc74d	-0.06825123
102	0xbd9d136f	-0.07669722
103	0xbd5fdb07	-0.05465224
104	0xbced2679	-0.02894901
105	0x3d304d55	0.0430425
106	0x3c865468	0.01639767
107	0xbd2251c6	-0.039628766
108	0xbdb7764c	-0.0895811
109	0xbb35a410	-0.0027716197
110	0x3cc55bf0	0.02409169
111	0xbd6ad3b5	-0.057330806
112	0xbd1a5bde	-0.037685268
113	0xbd886354	-0.0665957
114	0x3d283bc7	0.041072633
115	0x3cec3f43	0.02883876
116	0xbd7087e3	-0.05872334
117	0xbd1997b6	-0.0374982
118	0xbc6d7166	-0.014492368
119	0x3c7a22d2	0.015267091
120	0xbc8e03c4	-0.01733578
121	0xbb59a340	-0.0033208877
122	0xbc20de30	-0.009818599
123	0x3c9226fd	0.017840857
124	0x3d0ef977	0.034905877
125	0xbceb89f4	-0.028752305
126	0xbd5c0d60	-0.053723693
127	0x3cb4d9e1	0.022076549
128	0x3b7a6e78	0.0038212817
129	0xbce4241f	-0.027849255
130	0xbda0172e	-0.07816921
131	0xbcefac17	-0.029256864
132	0x3d1327a8	0.03592649
133	0x3c85ea56	0.016347092
134	0xbd9fdd26	-0.078058526
135	0x3b9708ab	0.0046091876
136	0xbd38d650	-0.04512626
137	0x3d2125a3	0.039342534
138	0x3d03da52	0.03219063
139	0x3c77d114	0.015125532
140	0xbd9fe9e6	-0.078082845
141	0xbb13ddd9	-0.0022562651
142	0xbd966470	-0.07343376
143	0xbd83b01d	-0.06430075
144	0xbda675ee	-0.08127962
145	0xbd8f605d	-0.07000802
146	0x3d534f55	0.05158933
147	0x3da66440	0.0812459
148	0xbd2cb03a	-0.04216025
149	0x3d60a0c8	0.054840833
150	0x3d18d405	0.037311573
151	0x3d7eb138	0.062180728
152	0xbc82fac3	-0.015988713
153	0x3d4db150	0.050217927
154	0xbd702c93	-0.05863626
155	0xbdb2df61	-0.087340124
156	0xbd80a629	-0.062816925
157	0x3d812406	0.06305699
158	0x3d13e7c5	0.036109705
159	0x3babf133	0.005247259
160	0x3d3e3d51	0.046445195
161	0x3becfe67	0.0072324756
162	0xbda2103d	-0.079132535
163	0x3d3eac86	0.04655125
164	0xbc627e89	-0.013824114
165	0xbd6f5bea	-0.058437265
166	0xbd97a3b4	-0.07404271
167	0xbb9df65d	-0.0048206286
168	0xbdbcbcec	-0.092157215
169	0xbda5480c	-0.080703825
170	0x3b2225f8	0.002474187
171	0xbdbfef86	-0.09371857
172	0xbcd1aa3d	-0.025593871
173	0x3d619167	0.055070307
174	0xbd9cbac5	-0.07652811
175	0xbd815782	-0.06315519
176	0x3d80302b	0.06259187
177	0x3d944fa1	0.072417505
178	0xbcededf4	-0.029044129
179	0x3d1b2514	0.037877157
180	0x3d1bc70a	0.038031615
181	0x3d83a698	0.064282596
182	0x3d93afe0	0.0721128
183	0x3c525387	0.012837297
184	0xbd4feaf8	-0.050761193
185	0x3d060006	0.032714866
186	0xbda7500b	-0.08169564
187	0xbdcf5bcc	-0.10124931
188	0x3d77e656	0.0605224
189	0xb98afaa7	-0.00026508162
190	0xbbb5e8d7	-0.0055514383
191	0xbdc2f06b	-0.09518512
192	0xbdbb971e	-0.09159683
193	0x3d0c2888	0.03421834
194	0x3d60921f	0.054826852
195	0xbd90c325	-0.07068471
196	0xbd2aacc7	-0.04166868
197	0x3d635943	0.05550505
198	0x3ad9f1da	0.0016627864
199	0xbd71667a	-0.05893562
200	0xbcef2114	-0.029190578
201	0x3d9cdc30	0.07659185
202	0x3daf3390	0.08554757
203	0x3da3c515	0.07996575
204	0xbbebc28f	-0.007194824
205	0xbd004ed0	-0.03132516
206	0x3cb924d1	0.022600563
207	0xbd93605a	-0.07196112
208	0xbb1899a4	-0.0023284936
209	0xbc1c2589	-0.009530433
210	0xbc983c61	-0.018583478
211	0xbcba9b91	-0.022779258
212	0x3a168979	0.0005742531
213	0xbda8a401	-0.08234406
214	0x3da128cd	0.0786911
215	0xbd4a760b	-0.04942898
216	0xbd0523b9	-0.03250477
217	0xbbb1d03b	-0.0054264343
218	0xbd825cff	-0.06365394
219	0x3c478e95	0.01217999
220	0xbdb2d090	-0.087311864
221	0xbd9364aa	-0.071969345
222	0xbd7edcb0	-0.062222183
223	0x3d56d6b8	0.052450866
224	0xbd69fde5	-0.0571269
225	0x3d667ae0	0.056269526
226	0x3d862aea	0.06551154
227	0x3d220d22	0.039563306
228	0x3bba3190	0.005682178
229	0xbdb7270a	-0.08942993
230	0x3d52c2e0	0.05145538
231	0xbd9a8080	-0.07544041
232	0xbd691571	-0.056905214
233	0xbca732d0	-0.020409971
234	0xbcd1e6aa	-0.025622685
235	0x3d81fd4b	0.0634714
236	0xbd6f5fec	-0.058441088
237	0xbd964f67	-0.073393635
238	0x3d2619d2	0.040551968
239	0xbc88a06b	-0.016678056
240	0xbda261e0	-0.079288244
241	0x3c062d6a	0.0081895385
242	0xbdafb685	-0.08579735
243	0x3d6f4aef	0.05842107
244	0x3cc119ff	0.023571966
245	0xbc49f567	-0.012326575
246	0x3c24f958	0.010069214
247	0x3d892933	0.06697311
248	0x3d0f30a2	0.03495849
249	0x3d953b83	0.072867416
250	0x3c93b620	0.01803118
251	0x3dabe867	0.083939366
252	0xbcebab3b	-0.028768172
253	0x3d5b7e0c	0.053587005
254	0xbcb6d7ab	-0.022319635
255	0xbcac84dc	-0.021059446

conv.bias f4 [32]
0	0xbd06cca0	-0.03290999
1	0x3d2b4ee9	0.0418233
2	0xba83b899	-0.0010049521
3	0xbd97afb9	-0.07406563
4	0x3c9cfcf1	0.01916358
5	0xbd908255	-0.07056109
6	0x3c1c4d87	0.009539968
7	0x3ce30df5	0.027716616
8	0x3d912e79	0.07088942
9	0xbce9dd6c	-0.028547965
10	0xbd5ceead	-0.053938556
11	0xbdb76b97	-0.08956068
12	0xbd3de19b	-0.046357732
13	0x3d26c386	0.04071381
14	0xbd249eb8	-0.04019043
15	0xbcd496b7	-0.025950773
16	0xbd437805	-0.04772188
17	0xbd4d4ed2	-0.050123997
18	0xbc2059e1	-0.009787054
19	0x3d632fcd	0.05546551
20	0x3c6a1473	0.014287102
21	0x3d1f37d5	0.038871605
22	0x3d8f18a4	0.06987122
23	0x3b8f5188	0.004373733
24	0xbd118c0c	-0.03553395
25	0xbcfedfd8	-0.031112596
26	0x3d244707	0.0401068
27	0xbcafd09a	-0.021461774
28	0x3b38e6da	0.002821377
29	0x3d8b21e8	0.067935765
30	0x3d1680a3	0.03674377
31	0x3d296201	0.04135323

bn.weight f4 [32]
0	0x3f771830	0.9652128
1	0x3f76728c	0.96268535
2	0x3f7b4dfa	0.9816586
3	0x3f778cbd	0.96699125
4	0x3f790342	0.97270596
5	0x3f79f2a7	0.97635883
6	0x3f792000	0.97314453
7	0x3f7a5401	0.9778443
8	0x3f7d9da8	0.9906869
9	0x3f77def1	0.96824557
10	0x3f78545b	0.97003716
11	0x3f763a38	0.96182585
12	0x3f761a28	0.9613366
13	0x3f7c4e51	0.98557
14	0x3f76b64b	0.96371907
15	0x3f799a62	0.97501194
16	0x3f7b3f97	0.98143905
17	0x3f7a0d73	0.9767677
18	0x3f7d7f26	0.9902214
19	0x3f783787	0.9695973
20	0x3f7ab911	0.9793864
21	0x3f7c6489	0.98590904
22	0x3f7cf1d0	0.98806477
23	0x3f7a65be	0.97811496
24	0x3f7a726d	0.9783085
25	0x3f7ab34b	0.9792983
26	0x3f7d49cc	0.9894073
27	0x3f789179	0.97096974
28	0x3f7a89b3	0.9786636
29	0x3f79c4f7	0.9756617
30	0x3f7a148e	0.97687614
31	0x3f75c2b8	0.9600024

bn.bias f4 [32]
0	0xbd1bdc63	-0.038051974
1	0xbd14eb23	-0.036357056
2	0xbcbf623b	-0.02336227
3	0xbd376156	-0.04477056
4	0xbce9de12	-0.028548274
5	0xbccf8376	-0.02533124
6	0xbcd158cd	-0.025555039
7	0xbcec3405	-0.028833399
8	0xbc8ef384	-0.017450102
9	0xbccd728c	-0.025079034
10	0xbd0338cd	-0.03203659
11	0xbd0d2339	-0.03445742
12	0xbd0a31e2	-0.03373898
13	0xbca44a1b	-0.020054867
14	0xbd16d4c1	-0.03682399
15	0xbcd6bf07	-0.026214136
16	0xbcf14898	-0.02945356
17	0xbcf354c7	-0.02970351
18	0xbcb3e2ad	-0.021958673
19	0xbd01075e	-0.031501167
20	0xbcfe9725	-0.03107793
21	0xbd0afb8f	-0.03393131
22	0xbcdab1d4	-0.026696123
23	0xbcac3916	-0.021023314
24	0xbcbbe39a	-0.022935677
25	0xbccc14d7	-0.024912281
26	0xbca0fa07	-0.019650472
27	0xbcfe428c	-0.031037591
28	0xbcea66c4	-0.028613456
29	0xbcc192c0	-0.023629546
30	0xbd0c5438	-0.034260005
31	0xbd21b962	-0.039483435

bn.running_mean f4 [32]
0	0xbf388be0	-0.7208843
1	0xbf29ad0e	-0.66279685
2	0x3ddaf86b	0.10691913
3	0xbec09636	-0.37614602
4	0x3d08e6bc	0.03342317
5	0x3f34611f	0.70460695
6	0x3f663215	0.8992017
7	0xbd5fe0c0	-0.054657698
8	0x3e594c78	0.21220577
9	0xbf51d56c	-0.8196628
10	0x3d83fd6c	0.06444821
11	0xbf4614d4	-0.7737553
12	0xbf414b44	-0.7550547
13	0xbc8bbdc9	-0.01705827
14	0xbf081b85	-0.5316699
15	0x3f0fd697	0.56186813
16	0x3eed6514	0.4636618
17	0xbe09c0e8	-0.13452494
18	0xbe3ddad9	-0.18540515
19	0x3ec38acb	0.38191828
20	0x3dc9d838	0.098556936
21	0x3c7c1e28	0.015388049
22	0x3de86a88	0.11348444
23	0x3f5db358	0.8660178
24	0x3f1992f4	0.5998986
25	0x3e6d1649	0.23153032
26	0x3c81a085	0.015823612
27	0xbb8012c7	-0.0039084884
28	0x3f0015d6	0.5003332
29	0x3fc61894	1.5476251
30	0x3c089600	0.008336544
31	0xbebc5702	-0.36785132

bn.running_var f4 [32]
0	0x3e0f6338	0.14002693
1	0x3e24762e	0.16060707
2	0x3cea0aaa	0.028569538
3	0x3cde4fbf	0.027137635
4	0x3c9cd986	0.019146692
5	0x3e0e1618	0.13875616
6	0x3e62ec77	0.22160517
7	0x3cb16b0e	0.021657493
8	0x3cc7a83e	0.024372216
9	0x3e37709d	0.17914052
10	0x3d98add8	0.07455033
11	0x3e09ba86	0.1345006
12	0x3de3b57e	0.11118601
13	0x3ca49264	0.020089336
14	0x3d789fb2	0.060699172
15	0x3da222cf	0.079167955
16	0x3d7a2dd4	0.06107886
17	0x3cc41ac8	0.023938552
18	0x3cbffef6	0.023437005
19	0x3d5e40e5	0.054261107
20	0x3c86002f	0.01635751
21	0x3c3448f5	0.011003722
22	0x3ce1bffd	0.027557367
23	0x3e322842	0.1739817
24	0x3dd67b7a	0.1047277
25	0x3d7a4a89	0.06110624
26	0x3d27b9ad	0.04094856
27	0x3cf3507e	0.029701468
28	0x3d89bf07	0.06725889
29	0x3f089545	0.5335277
30	0x3c4d0902	0.012514355
31	0x3d41d55e	0.047322623

fc.weight f4 [1, 32768]
0	0xba301814	-0.0006717455
1	0x3a81697e	0.0009873358
2	0x3bb08100	0.0053864717
3	0x3acfd491	0.0015856196
4	0x3b2951c9	0.0025836101
5	0x3c1c0ed4	0.00952502
6	0x3b3dc0ee	0.0028954106
7	0xbb2a88a7	-0.0026021393
8	0xba3b34aa	-0.00071413314
9	0x3b4e1231	0.0031443948
10	0xbbc41bb6	-0.0059847487
11	0xbc6da13b	-0.014503772
12	0xbc44c7cf	-0.012010529
13	0xbbd9c514	-0.006645808
14	0x3bd4d1cb	0.006494736
15	0xba9ed927	-0.001211916
16	0xb97d2a4b	-0.00024143716
17	0xbaac98d5	-0.0013168106
18	0xbae80605	-0.0017701989
19	0x3baa6f9e	0.005201294
20	0x3c3345ed	0.010941965
21	0x3c74ea98	0.01494851
22	0x3ca88afe	0.02057409
23	0x3c2ac7c3	0.0104236035
24	0x3c472706	0.0121553
25	0x3bf12e8d	0.0073602856
26	0x3b5e9041	0.0033960494
27	0xbb8b756b	-0.0042559407
28	0xbb068193	-0.002052401
29	0xbbdbb072	-0.0067043835
30	0x3b8882bd	0.004165976
31	0x3ae6c34c	0.001760581
32	0xba05be03	-0.00051018613
33	0x3bc34532	0.0059591765
34	0x3b37db56	0.0028054318
35	0x3c0a0112	0.008423107
36	0x3c397960	0.011320442
37	0xb8904be9	-6.8805944e-05
38	0x3b9e6c4f	0.0048346887
39	0x3c313822	0.010816606
40	0x3b462003	0.0030231483
41	0x3c314b11	0.01082112
42	0x3b3a0d1f	0.0028389168
43	0xbb5b2149	-0.0033436588
44	0x3b2c6098	0.0026302692
45	0x3b19e03d	0.0023479604
46	0xbc14186d	-0.009039027
47	0xbbfecb24	-0.007775681
48	0x3b79b9c5	0.0038105112
49	0x3b93eff9	0.004514691
50	0x3a28af38	0.0006434801
51	0x3b85fa4d	0.004088676
52	0x390a95f0	0.00013216562
53	0x3c11a44e	0.008889271
54	0x3c45fbcc	0.012083959
55	0x3c9eaf8a	0.019370813
56	0x3c52082d	0.012819332
57	0x3c1e2d3e	0.009654341
58	0x3b8ec1ca	0.0043565976
59	0xbb8cbe03	-0.004295112
60	0x3bbd446c	0.005775979
61	0x3ad066d9	0.0015899792
62	0x3b6ee228	0.0036450718
63	0xbbf1e54a	-0.0073820697
64	0x3bb5f166	0.0055524586
65	0x3c6a9fc5	0.014320319
66	0x3bc6d196	0.006067465
67	0x3c24e7dc	0.010065045
68	0x3c369149	0.011143037
69	0x3c25fe0e	0.010131372
70	0x3bcdda3d	0.0062821195
71	0xbb056369	-0.0020353443
72	0xbc54153c	-0.012944516
73	0xbc2739f5	-0.010206689
74	0xbb9d415c	-0.004799051
75	0xbba97fbd	-0.0051726983
76	0xbbc4d8d1	-0.006007292
77	0xb9ce1332	-0.00039305683
78	0x3c0614e5	0.008183693
79	0x3c84547b	0.016153565
80	0x3c015b97	0.007895372
81	0xbb598e18	-0.0033196267
82	0xbbc9858e	-0.006149954
83	0x3a1499ea	0.0005668687
84	0x3bd8e5cb	0.0066191903
85	0x3c501401	0.012700082
86	0x3ccb17e6	0.02479167
87	0x3cda8e4f	0.026679186
88	0x3cc9db4c	0.024640702
89	0x3c6802eb	0.014160852
90	0x3ba43bdb	0.005012018
91	0x3b2720c3	0.0025501705
92	0xbb931822	-0.004488961
93	0xbc0a43d0	-0.008439019
94	0x3b8f84f1	0.0043798615
95	0x3c19f75a	0.009397352
96	0x3b8c0d6e	0.004274062
97	0x3cb0c999	0.021580504
98	0x3c96939e	0.018380936
99	0x3c975477	0.018472893
100	0x3c8cdf77	0.0171964
101	0xbb091af3	-0.0020920604
102	0xbbf735ad	-0.0075442404
103	0x3a92b2b0	0.0011192169
104	0x3b77d043	0.0037813343
105	0xbc46f616	-0.012143632
106	0xbc058cbf	-0.008151232
107	0xbb5761fe	-0.0032864804
108	0xba9ad61d	-0.0011813078
109	0xbb8bd1b3	-0.0042669415
110	0x3bcd83ea	0.006271829
111	0x3c026a03	0.0079598455
112	0x3c3b32d4	0.011425693
113	0x3c6993d7	0.014256439
114	0x3b9e1be6	0.004825103
115	0xbc355269	-0.011067011
116	0xbc4a8836	-0.012361577
117	0x3bcebffc	0.0063095074
118	0x3cb98881	0.022648098
119	0x3cb69454	0.022287525
120	0x3c967582	0.018366579
121	0x3bf0cc88	0.007348601
122	0x3848dbf0	4.788855e-05
123	0x3b85c762	0.004082606
124	0xbc35f3ff	-0.0111055365
125	0xbc0404b4	-0.008057762
126	0x3ad7ea69	0.0016473058
127	0x3b9c4eb4	0.0047701243
128	0xb91d399d	-0.0001499415
129	0x3c5dbbb0	0.013533518
130	0x3c9b050f	0.01892331
131	0x3c6a3433	0.014294672
132	0x3c34e53f	0.011040985
133	0x3c3e1535	0.011601736
134	0xbaa30ebd	-0.0012440305
135	0xbb4e33b0	-0.0031463914
136	0xbc582917	-0.01319339
137	0xbc8869ad	-0.016651953
138	0xbbcffc78	-0.0063472353
139	0xbbc1ad8c	-0.005910581
140	0xbb5fdd61	-0.0034159052
141	0xbb5674a1	-0.0032723325
142	0x3b03d8ef	0.0020118316
143	0xb8646b66	-5.445946e-05
144	0x3ae46539	0.0017425186
145	0x3c0d895f	0.008638709
146	0x3bac91ee	0.0052664196
147	0x3b87a94e	0.0041400557
148	0xbbe902a1	-0.007110909
149	0xbc7480db	-0.0149233
150	0xbc2a4492	-0.010392325
151	0x3bcb595b	0.0062057204
152	0x3c785611	0.015157239
153	0x3cdc4282	0.026887182
154	0x3af5124c	0.001869747
155	0xba678d2a	-0.0008832986
156	0x3c060def	0.008182033
157	0x3b5f773b	0.0034098167
158	0x3a702ba7	0.0009161778
159	0x3bc70123	0.0060731336
160	0x3b4f643d	0.003164544
161	0x3cbc42b8	0.022981033
162	0x3c91cbbe	0.017797347
163	0x3c6572d7	0.014004431
164	0x3c3cc0b1	0.011520551
165	0x3b832451	0.004002132
166	0xbb949bc8	-0.004535172
167	0xbc4356f3	-0.011922586
168	0xbb862e95	-0.0040949085
169	0xbb73562c	-0.003713022
170	0xbc110bac	-0.00885288
171	0xbb86d2d9	-0.0041144905
172	0x3b7aebf1	0.0038287605
173	0xbb2a2f97	-0.0025968307
174	0xbb4251f6	-0.0029650903
175	0xbb0a75f3	-0.0021127432
176	0xbb24995a	-0.0025115819
177	0xba80c475	-0.0009824174
178	0xbabbc845	-0.0014326653
179	0x3be82fb5	0.0070857652
180	0x3b622423	0.0034506402
181	0xbc25952e	-0.010106368
182	0xbc8a662b	-0.01689442
183	0x3b286d17	0.0025699788
184	0x3b939618	0.0045039766
185	0x3bd8f6b7	0.0066212076
186	0x3c488d09	0.012240657
187	0xbb038c53	-0.0020072653
188	0xbc8cad1b	-0.017172387
189	0xbb80223c	-0.003910331
190	0x3c6269f6	0.013819208
191	0xbb8d62e1	-0.004314766
192	0x3bbb86eb	0.0057228706
193	0x3c957b78	0.018247351
194	0x3ca64344	0.020295747
195	0x3b863137	0.0040952223
196	0x3bf02ef2	0.007329815
197	0xb920a539	-0.0001532034
198	0xbb80c92c	-0.0039302316
199	0xbc12ddf2	-0.008964049
200	0xbc04ecae	-0.008113069
201	0xbbf9b2cb	-0.0076201907
202	0xbbcefef3	-0.0063170134
203	0xbbc7bde3	-0.0060956343
204	0xba5bbf5c	-0.0008382702
205	0xbbda45c8	-0.0066611506
206	0xbb72c846	-0.0037045642
207	0xbbca5726	-0.0061749397
208	0xbb925af2	-0.004466408
209	0xb91493e8	-0.00014169479
210	0xbbc3698c	-0.00596351
211	0xbb36d155	-0.0027895768
212	0x3b7bfd6d	0.0038450614
213	0xbba5653a	-0.0050474675
214	0xbc9093c1	-0.01764858
215	0xbbb1d47f	-0.005426943
216	0x3c33a0ae	0.010963602
217	0x3c9b170b	0.018931886
218	0x3c90becb	0.017669102
219	0xbc189cf4	-0.009314764
220	0xbb26ac93	-0.0025432452
221	0xbc2b5808	-0.010458
222	0xbb096c39	-0.0020969047
223	0x3b0625ee	0.0020469385
224	0x3b9ab852	0.0047216797
225	0x3c000730	0.007814214
226	0x3c763eaf	0.015029593
227	0x3c5c6d35	0.013453771
228	0x3b2dc6f5	0.0026516293
229	0x3b89fad7	0.0042108106
230	0xb9f30970	-0.00046355603
231	0xbaa74c30	-0.0012763795
232	0xbb952b7c	-0.004552303
233	0xbbbd32ef	-0.005773894
234	0xbb5bbea2	-0.0033530374
235	0x39896c72	0.00026211474
236	0xbad90fd9	-0.0016560509
237	0xbbad667e	-0.005291759
238	0xbbd0f696	-0.0063770516
239	0xbb92a91a	-0.004475725
240	0x3b50ff79	0.0031890555
241	0xbbeed623	-0.0072887107
242	0x3a95d3b4	0.001143089
243	0xbadcf1f3	-0.0016856774
244	0xbbbfd33c	-0.0058540385
245	0xbb6a84a6	-0.003578463
246	0xbc4b25ab	-0.012399117
247	0xbc5b94c0	-0.013402164
248	0xbb98dc08	-0.0046649016
249	0x3baeb7e3	0.0053319796
250	0x3c176a7d	0.009241697
251	0x3b34dd5b	0.0027597758
252	0xbcd4de23	-0.02598483
253	0xbd096435	-0.03354283
254	0xbbfe9035	-0.0077686557
255	0xbc05c2e5	-0.008164142
