model/happy-cnn.pth (torch, 153569 bytes, 7 tensors)

conv.weight f4 [32, 3, 7, 7]
0	0x3d2823c1	0.041049723
1	0x3cd286de	0.025699075
2	0xbd24e113	-0.04025371
3	0x3cca8d54	0.024725594
4	0x3c067cd5	0.008208473
5	0xbd9f3b0f	-0.077749364
6	0x3d7a1ae1	0.06106079
7	0x3d961699	0.07328529
8	0xbd3adf59	-0.045623157
9	0xbd697a5f	-0.057001468
10	0xbd2af68f	-0.041739043
11	0x3b73612a	0.0037136772
12	0x3d7a69b7	0.061135974
13	0xbd489f7d	-0.048980225
14	0xbd882745	-0.06648115
15	0xbd10cd12	-0.03535182
16	0xbd081611	-0.03322417
17	0xbca8d14a	-0.02060761
18	0x3d8f55ae	0.06998764
19	0x3dad02d8	0.08447808
20	0xbd1da6e2	-0.03848923
21	0x3d619576	0.055074178
22	0xbbef4818	-0.0073022954
23	0xbcc5a4ab	-0.024126371
24	0x3d75bc2e	0.059993915
25	0xbd68caa2	-0.05683387
26	0xbd766843	-0.060158025
27	0x396545bb	0.00021865118
28	0x3c024bdf	0.007952659
29	0x3ce0fa93	0.027463233
30	0xbda2a6f8	-0.07942003
31	0x3d87be28	0.06628066
32	0xbc704e1e	-0.014667062
33	0xbce8fa0c	-0.028439544
34	0xbca9bd81	-0.020720245
35	0xbd812e32	-0.06307639
36	0xbcd2ef61	-0.02574891
37	0xbc7c641d	-0.015404728
38	0x3cb6bd13	0.022306954
39	0x3d966432	0.073433295
40	0xbd2773b4	-0.040881827
41	0xbccdc453	-0.025118029
42	0xbd509fbb	-0.05093358
43	0x3b711b11	0.0036789814
44	0x3c449cd0	0.012000278
45	0x3d7aeaa3	0.061258923
46	0x3d97a0d2	0.07403721
47	0x3db1d850	0.086838365
48	0x3d6f3e58	0.058409065
49	0x3d9a2bba	0.075278714
50	0xbd35a869	-0.04435006
51	0xbd89aa6d	-0.06721959
52	0x3da7200e	0.08160411
53	0xbd8a1e70	-0.06744087
54	0x3c98d319	0.018655347
55	0xbd35904d	-0.04432707
56	0xbc9129df	-0.017720161
57	0x3d8305c4	0.06397584
58	0xbd88b035	-0.06674234
59	0x3d14f015	0.036361773
60	0x3c6444c6	0.0139324125
61	0x3d422515	0.047398645
62	0x3c673c44	0.01411349
63	0xbdad77ba	-0.08470102
64	0xbdac6d84	-0.08419326
65	0x3d915af1	0.07097424
66	0x3d150dd7	0.03639015
67	0x3d713a14	0.05889328
68	0xbcdc611e	-0.026901778
69	0x3d9db19c	0.07699892
70	0x3d8b9ff5	0.06817619
71	0xbd26d458	-0.04072985
72	0x3c54d979	0.012991303
73	0x3d7a1844	0.061058298
74	0xbca249ee	-0.019810643
75	0x3d2dc95d	0.042428363
76	0x3b4bf340	0.003112033
77	0x3c011f3d	0.007880983
78	0xbd1d8dee	-0.038465433
79	0xbd25f344	-0.0405152
80	0x3d81be1d	0.06335089
81	0xbd8cec7a	-0.06881042
82	0x3d943fd8	0.0723874
83	0x3d2a1981	0.04152823
84	0x3d86ea79	0.06587691
85	0xbc24b334	-0.010052491
86	0x3c84112b	0.016121468
87	0xbd0146c3	-0.031561624
88	0xbc4652e6	-0.012104725
89	0xbd980c56	-0.07424228
90	0xbdacc297	-0.084355526
91	0xbbb4c896	-0.005517076
92	0xbcd9697c	-0.026539557
93	0x3da9336b	0.0826176
94	0x3c48d20e	0.012257112
95	0xbc1b241f	-0.009469061
96	0x3c584098	0.013198994
97	0x3d381591	0.044942442
98	0xbd50a419	-0.050937746
99	0xbcb0a18f	-0.021561412
100	0x3d6b7db1	0.057492916
101	0x3daafe6f	0.083493106
102	0x3d01f51c	0.031727895
103	0xbbcb3838	-0.00620177
104	0x3d91b09d	0.071137644
105	0xbc73aa8e	-0.014872206
106	0x3a410aca	0.00073639734
107	0x3d3c15b8	0.04591915
108	0x3c753c9b	0.014968063
109	0x3dabe36d	0.083929874
110	0xbc8fcfda	-0.017555166
111	0x3d3fd7b5	0.046836574
112	0xbd2e9da1	-0.042630795
113	0xbd20c59c	-0.039250955
114	0x3da5e758	0.08100766
115	0x3d299dc7	0.041410234
116	0xbd286a88	-0.04111722
117	0xbd820923	-0.06349399
118	0xbcbedbbc	-0.023298137
119	0xbd7db35f	-0.06193864
120	0xbca95179	-0.020668732
121	0xbd3b2246	-0.045686983
122	0xbd978137	-0.07397693
123	0x3c866ce4	0.016409345
124	0xbda61c3d	-0.08110855
125	0x3d9b0046	0.075684115
126	0x3c26453f	0.0101483455
127	0x3cfdf979	0.031002747
128	0xbc5ab317	-0.013348362
129	0xbd595b84	-0.05306579
130	0xbd7b57b3	-0.061362933
131	0xbdb61958	-0.08891553
132	0x3d740acc	0.05958061
133	0xbd80be55	-0.06286303
134	0x3cf132fb	0.029443255
135	0xbd295ec5	-0.041350145
136	0xbc81ace0	-0.015829504
137	0xbdaf3032	-0.085541144
138	0xbcd6f99b	-0.026242068
139	0xbd3352e2	-0.043780215
140	0x3d45d19a	0.048295595
141	0xbd966ff9	-0.07345576
142	0xbd17ba4e	-0.03704291
143	0xbc0ba507	-0.008523232
144	0xbd24cd8c	-0.040235087
145	0x3da9f02b	0.082977615
146	0x3c9ac335	0.01889191
147	0xbd29039d	-0.04126321
148	0x3b21531d	0.002461619
149	0xbc86f905	-0.016476164
150	0x3cea92a5	0.028634379
151	0xbca09c43	-0.019605761
152	0x3d6c477f	0.05768537
153	0xbd616a2e	-0.0550329
154	0x3d36e1b3	0.044648837
155	0xbd5bbdaa	-0.053647675
156	0x3c5e155f	0.0135549
157	0x3baff760	0.0053700656
158	0x3d016949	0.03159455
159	0xbd3422b9	-0.043978427
160	0xbd27675d	-0.04087006
161	0xbd8f7617	-0.07004946
162	0x3d477482	0.048695095
163	0x3d4fb1a1	0.05070651
164	0xbd32ec69	-0.04368249
165	0x3d115861	0.035484675
166	0xbcc016cc	-0.02344837
167	0x3d91d3ec	0.07120499
168	0x3da0a2c7	0.07843547
169	0x3da8af9c	0.0823662
170	0xbd803c6c	-0.062615246
171	0xbd558de5	-0.052137274
172	0x3d465a14	0.04842575
173	0x3da5f45e	0.0810325
174	0x3c0f6a30	0.008753344
175	0x3bf261a1	0.007396892
176	0x3dcbbb9c	0.09947893
177	0x3d8d1a27	0.06889754
178	0x3ba3b371	0.0049957563
179	0x3d8cf940	0.06883478
180	0xbd0ee6ae	-0.034887962
181	0xbd1aa529	-0.037755165
182	0x3d9481f4	0.07251349
183	0x3dc414d7	0.095742874
184	0x3cfe3493	0.031030929
185	0x3bc8fc0b	0.0061335615
186	0xbc90d365	-0.017678926
187	0xbc900eff	-0.017585276
188	0xbd8b8064	-0.06811598
189	0x3ce48808	0.027896896
190	0xbbd425c1	-0.006474227
191	0x3d278fcb	0.040908616
192	0x3da428e9	0.080156155
193	0x3c4f9953	0.012670833
194	0x3d65ea0b	0.056131404
195	0xbc36f47d	-0.011166689
196	0x3c7c6545	0.015405004
197	0x3d68ab2e	0.056803875
198	0xbd841da3	-0.06450965
199	0xbd0a11b8	-0.033708304
200	0xbce978e4	-0.028500028
201	0xbb83f0e7	-0.0040265205
202	0xbdab3b3a	-0.08360906
203	0xbcd509f8	-0.02600573
204	0x3d225d81	0.039639954
205	0x3bd625ce	0.0065352684
206	0x3d5b0ca3	0.05347885
207	0x3cde2b3f	0.02712023
208	0xbd627768	-0.055289656
209	0x3d7f0799	0.062263105
210	0x3d5e13b0	0.054217994
211	0x3cc8c531	0.02450809
212	0xbd3e00f2	-0.04638762
213	0xbd80fa3d	-0.06297729
214	0xbd9fda29	-0.078052826
215	0xbd32e052	-0.04367096
216	0xba6e88ca	-0.00090993627
217	0xbce41dbc	-0.02784621
218	0xbb92d34f	-0.0044807564
219	0xbcc01232	-0.023446176
220	0x3ba74811	0.0051050265
221	0xbdb4d64b	-0.08829936
222	0xbc3e0868	-0.011598684
223	0xbad8117c	-0.0016484703
224	0x3d1d8433	0.038456153
225	0x3d4f8eec	0.05067341
226	0xbd014dfc	-0.031568512
227	0x3ca71b7a	0.020398844
228	0xbd403f14	-0.046935156
229	0x3d389885	0.04506733
230	0xbcadbfd9	-0.021209644
231	0xbd505445	-0.050861616
232	0x3dab84d3	0.083749436
233	0x3d0c707c	0.03428696
234	0x3d31bb32	0.043391414
235	0xbcdef78a	-0.027217645
236	0xbd0b7a10	-0.034051955
237	0xbd6b35b9	-0.05742428
238	0x3d3e9d5f	0.0465368
239	0xbc57324e	-0.013134552
240	0xbda45b47	-0.08025222
241	0xbd9ca895	-0.07649342
242	0xbd169fbb	-0.036773425
243	0xbd074def	-0.033033308
244	0x3d460dbd	0.048352946
245	0x3d10db4f	0.0353654
246	0x3bedb7ec	0.007254591
247	0x3cdee591	0.027209075
248	0xbd2b7c9a	-0.041866876
249	0x3d7352de	0.0594052
250	0x3cb695a6	0.022288155
251	0xbb7ac1e3	-0.0038262538
252	0x3d23a72a	0.039954342
253	0x3d25c208	0.040468246
254	0xbbb47e47	-0.0055082175
255	0x3ca13221	0.019677224

conv.bias f4 [32]
0	0x3ce4b694	0.027919091
1	0x3d05c2ce	0.032656483
2	0x3d1aba5d	0.037775386
3	0x3d966cc5	0.07344965
4	0x3d303e53	0.043028187
5	0x3cda9e4d	0.026686812
6	0xbdb56e99	-0.088589855
7	0xbc4fb084	-0.012676362
8	0xbd2fee76	-0.042952023
9	0x3d5e8d14	0.05433376
10	0x3bc3d6c4	0.00597653
11	0x3da6e11f	0.08148407
12	0xbd6e2719	-0.058142755
13	0xbd5f967b	-0.05458687
14	0xbcef992e	-0.029247846
15	0xbd599638	-0.053121775
16	0xbd16743c	-0.036731943
17	0xbc111378	-0.008854739
18	0xbcf845e7	-0.03030677
19	0x3cd6de40	0.026229024
20	0xbd87b9a3	-0.06627204
21	0xbb534e1f	-0.0032242609
22	0xbd8adbae	-0.06780182
23	0x3d9c8f22	0.07644488
24	0x3ca104ec	0.019655667
25	0xbd549099	-0.05189571
26	0x3c6cbb5f	0.01444897
27	0x3d3f4263	0.04669417
28	0x3cd7805f	0.02630633
29	0x3cd031ac	0.02541431
30	0xbcfdf6fd	-0.031001562
31	0x3d4de06c	0.050262854

bn.weight f4 [32]
0	0x3f7b5b92	0.981866
1	0x3f799d13	0.975053
2	0x3f7b5f62	0.9819242
3	0x3f7d3970	0.9891577
4	0x3f7b428f	0.98148435
5	0x3f77b84a	0.9676558
6	0x3f781bdd	0.96917516
7	0x3f7c8064	0.9863341
8	0x3f77aeea	0.9675127
9	0x3f78ef31	0.9723998
10	0x3f770913	0.9649822
11	0x3f78cebe	0.97190464
12	0x3f7c2887	0.9849934
13	0x3f7a9086	0.97876775
14	0x3f7a0e23	0.9767782
15	0x3f77b36f	0.9675817
16	0x3f74588f	0.9544763
17	0x3f7a7d9b	0.9784791
18	0x3f76f966	0.964743
19	0x3f7bedec	0.98409915
20	0x3f76f5aa	0.96468604
21	0x3f7bdf46	0.98387563
22	0x3f78d90c	0.9720619
23	0x3f771ae5	0.9652541
24	0x3f73ea2e	0.95279205
25	0x3f7b7863	0.9823057
26	0x3f7668d0	0.9625368
27	0x3f749571	0.9554053
28	0x3f7aa999	0.97915035
29	0x3f802c3c	1.0013499
30	0x3f70857e	0.9395369
31	0x3f7e1a49	0.9925886

bn.bias f4 [32]
0	0xbcdeab0e	-0.027181175
1	0xbcf32916	-0.029682677
2	0xbd27344c	-0.04082136
3	0xbc8cef11	-0.01720384
4	0xbd025430	-0.03181857
5	0xbd58e1eb	-0.052949827
6	0xbd08ff0c	-0.033446357
7	0xbd1ee3fa	-0.038791634
8	0xbce124b6	-0.027483325
9	0xbccb3353	-0.024804747
10	0xbcfe2065	-0.031021306
11	0xbd22eef8	-0.03977868
12	0xbd0b8486	-0.03406193
13	0xbcebc044	-0.028778203
14	0xbcc8d522	-0.024515692
15	0xbcd58d3b	-0.02606832
16	0xbd1670d8	-0.03672871
17	0xbd067bbb	-0.032832842
18	0xbd1c6154	-0.038178757
19	0xbcbe3789	-0.02321984
20	0xbd0855b4	-0.033284858
21	0xbcee407f	-0.029083489
22	0xbd09d498	-0.03365001
23	0xbd245294	-0.040117815
24	0xbd3665c6	-0.044530652
25	0xbcc9e253	-0.024644053
26	0xbcfe6884	-0.031055696
27	0xbd0fa91b	-0.03507338
28	0xbccb0c0d	-0.02478602
29	0xbca4a44b	-0.020097872
30	0xbd74f4dc	-0.05980383
31	0xbc56362e	-0.013074441

bn.running_mean f4 [32]
0	0x3cf36658	0.029711887
1	0x3ef11aac	0.47090662
2	0x3e5275cb	0.20552747
3	0x3ddd2b00	0.10799217
4	0x3f106ce9	0.56416184
5	0xbcd8dfc0	-0.02647388
6	0xbe838365	-0.25686184
7	0x3e2acc19	0.1667942
8	0xbed11b7a	-0.40841275
9	0xbd9c7ca0	-0.07640958
10	0xbe448a7c	-0.19193453
11	0xbee66dc2	-0.45005614
12	0x3e25e20a	0.16199508
13	0xbc8a7189	-0.01689984
14	0x3e693ad1	0.22776343
15	0xbefe3e30	-0.4965682
16	0xbf0776e0	-0.52915764
17	0x3e70685f	0.23477314
18	0x3da6a81f	0.08137535
19	0x3e3c5d0b	0.18394868
20	0xbf217a33	-0.63077086
21	0x3e9ab803	0.30218515
22	0x3e791a65	0.24326475
23	0xbe4f15c6	-0.2022315
24	0xbec12b4c	-0.37728345
25	0xbf31f50c	-0.69514537
26	0xbec6043f	-0.38675115
27	0xbefe8044	-0.49707234
28	0x3ee17345	0.44033256
29	0x3bf96a6e	0.0076115644
30	0x3f36e201	0.71438605
31	0x3d5dc684	0.054144397

bn.running_var f4 [32]
0	0x3c4b59e5	0.012411569
1	0x3da84aa6	0.08217363
2	0x3d09b097	0.033615675
3	0x3cc2678f	0.023731021
4	0x3df683fd	0.120368935
5	0x3c7a2dc3	0.0152696995
6	0x3c394111	0.011307017
7	0x3d2c9603	0.04213525
8	0x3d5f33b5	0.05449267
9	0x3c681a17	0.014166377
10	0x3c56fea7	0.013122237
11	0x3dc0ef28	0.094206154
12	0x3cd1d591	0.025614532
13	0x3c94d492	0.018167768
14	0x3cc6076c	0.02417346
15	0x3d85cbef	0.06533038
16	0x3d842cbf	0.06453847
17	0x3d17bacb	0.037043374
18	0x3d504cf8	0.050854653
19	0x3d18b5cf	0.03728276
20	0x3e0f9a4e	0.14023706
21	0x3d19368a	0.037405528
22	0x3d24bb57	0.040217724
23	0x3cf17b5e	0.029477771
24	0x3d904942	0.07045223
25	0x3dffcdcf	0.12490427
26	0x3d4d1a3d	0.05007385
27	0x3dfe9315	0.124303974
28	0x3d6ee9b6	0.058328353
29	0x3d2307be	0.039802305
30	0x3e22c8b5	0.15896876
31	0x3c8628a8	0.016376808

fc.weight f4 [1, 32768]
0	0x3a902866	0.0010998368
1	0xbccfd4ed	-0.025370086
2	0xbca108b3	-0.019657468
3	0x3b3a9a73	0.0028473407
4	0x3c3f481a	0.011674905
5	0x3c59ea83	0.013300541
6	0xbc5ed164	-0.013599727
7	0x3c026bb2	0.007960247
8	0xbc74bb5c	-0.014937248
9	0x3c223c23	0.009902033
10	0x3c621457	0.013798795
11	0xbb25f534	-0.0025323154
12	0x39439c6c	0.00018654921
13	0xba9b2adc	-0.0011838335
14	0x3baca9f4	0.0052692834
15	0x3be5ea94	0.0070164893
16	0x3c2b39b0	0.0104507655
17	0x3cc1e711	0.023669751
18	0x3cd49f99	0.025955008
19	0x3cbcef88	0.023063436
20	0x3c8564ad	0.016283358
21	0x3c49f55b	0.012326564
22	0xbb49b1a3	-0.0030776046
23	0xbb2cf41c	-0.0026390618
24	0x3ab03fb4	0.0013446719
25	0x3b73d360	0.0037204847
26	0x3c8a973f	0.016917823
27	0x3c0a4ebb	0.008441622
28	0x3c002fd1	0.0078239
29	0x3c09ff64	0.008422706
30	0xbc3878f9	-0.011259311
31	0x3c1ba612	0.0095000435
32	0x3a36b6b3	0.00069699733
33	0xbc0c8edc	-0.008578982
34	0x3b939a6a	0.0045044916
35	0xbc042239	-0.0080648
36	0x38474d36	4.7517206e-05
37	0x3c29f14b	0.01037247
38	0x3c276f86	0.01021946
39	0xbbedfe85	-0.007263007
40	0x3c742082	0.014900329
41	0x3b8ad8b4	0.004237259
42	0x3c592fa5	0.013255988
43	0x3b5c920a	0.0033656382
44	0x3c02d79f	0.007985978
45	0xbbe82550	-0.007084526
46	0xbc2b13ed	-0.010441762
47	0xbb5ef860	-0.0034022555
48	0xbb9897ff	-0.004656791
49	0xbb6fc804	-0.0036587724
50	0xbba40000	-0.005004883
51	0x3c1f5b7d	0.009726402
52	0xbbf81310	-0.007570632
53	0xbc006a05	-0.007837777
54	0xbc3d245e	-0.011544315
55	0x3b337b49	0.0027386716
56	0x3c195eaa	0.009360949
57	0xbb1aa3a4	-0.0023596073
58	0xbb12d2ea	-0.0022403547
59	0xbb8e8cfc	-0.0043503027
60	0x3ae87ac4	0.0017736782
61	0xbbb55e25	-0.0055349045
62	0xbb05d627	-0.0020421834
63	0xbbb92e2b	-0.0056512556
64	0xbbbfb57d	-0.0058504925
65	0xbc85483f	-0.016269801
66	0xbb163bdc	-0.0022923863
67	0x3c199b91	0.009375469
68	0xbbaf3a45	-0.0053475224
69	0xbbcec662	-0.00631027
70	0xbb29a830	-0.00258876
71	0xbbf8b84d	-0.0075903297
72	0xbc05cbbf	-0.008166253
73	0x3bbbe631	0.005734228
74	0x3bfba5a1	0.0076796566
75	0x3b68990e	0.0035491618
76	0xbc3e6c23	-0.0116224615
77	0xbcc11a2a	-0.023572046
78	0xbbd83fa2	-0.0065993825
79	0xba346c1d	-0.0006882565
80	0x3b19ce85	0.0023469042
81	0x39b6e8b3	0.0003488712
82	0xb8471d7c	-4.7472757e-05
83	0xbbb2c111	-0.005455144
84	0x3c62f9e3	0.013853523
85	0xbb8748e1	-0.004128561
86	0xbc8402a9	-0.01611455
87	0x3aeb0741	0.0017931239
88	0x3b62db28	0.003461549
89	0x3bf08a0a	0.0073406743
90	0xbc12330b	-0.008923302
91	0xbccf82ee	-0.025330987
92	0xbc1dedeb	-0.009639244
93	0xbc3ffe58	-0.011718355
94	0xbc9fcf29	-0.019507961
95	0xbab3eb6c	-0.0013726777
96	0xbb382307	-0.002809705
97	0xbc7b16e2	-0.01532528
98	0xbbf3cd6d	-0.00744026
99	0xbb405dbd	-0.0029352747
100	0x3905394e	0.00012705216
101	0x3bdd8b24	0.0067609716
102	0x3b9d5ab0	0.0048020706
103	0xb942e312	-0.00018585872
104	0x3c4a3f5b	0.012344207
105	0x3b1c3ec0	0.0023841113
106	0x388435be	6.304261e-05
107	0xbbb71f1a	-0.0055884244
108	0xbaf5af12	-0.0018744192
109	0x3b7c530c	0.0038501648
110	0xbbe18500	-0.00688231
111	0xbc858182	-0.016297106
112	0xbac37c9d	-0.0014914457
113	0x3bb1233c	0.0054058116
114	0x3bbeb853	0.005820313
115	0x38acf5cf	8.2473845e-05
116	0x3ae92296	0.0017786797
117	0xbc1a97ab	-0.0094355745
118	0xbb73eab5	-0.0037218754
119	0x3bb8bb34	0.0056375507
120	0xba89081a	-0.0010454685
121	0xba615cce	-0.0008596898
122	0x3b64e7b6	0.003492815
123	0xbbff4e47	-0.007791314
124	0xbc9844ab	-0.018587431
125	0xbc5a70df	-0.013332575
126	0xbba8229e	-0.00513108
127	0xbc251936	-0.010076812
128	0x3a50ace4	0.0007960333
129	0x38f699ec	0.00011758864
130	0x3c82b3cd	0.015954876
131	0x3c3fe963	0.011713359
132	0x3b82c372	0.003990584
133	0xbb13d796	-0.002255892
134	0xbc451ce7	-0.012030817
135	0x3c310129	0.010803499
136	0xbc259ba8	-0.010107912
137	0xbc26409d	-0.010147241
138	0xbc558000	-0.013031006
139	0xbc84cfcb	-0.016212365
140	0xbc4e1fc5	-0.012580817
141	0xbbd60e9c	-0.0065325033
142	0xbc10274c	-0.008798432
143	0xbaaee03c	-0.0013341974
144	0x3b98fd7d	0.00466889
145	0x3a91b1fe	0.0011115668
146	0x3c177618	0.009244464
147	0x3b68ac31	0.0035503025
148	0x3b9706aa	0.0046089487
149	0x3b2c75ef	0.002631541
150	0xbc31e921	-0.010858805
151	0xbb6f5963	-0.0036521784
152	0x3b5ca4ba	0.003366752
153	0x3af81773	0.0018927887
154	0xbb2f51d2	-0.002675165
155	0xbc3c3659	-0.011487567
156	0xbbe65891	-0.007029601
157	0xbc1f22d6	-0.009712895
158	0x3b3d2f63	0.0028867356
159	0xbc6bd2de	-0.014393536
160	0xbbe84964	-0.007088827
161	0x3b5d9026	0.0033807843
162	0x3c160a34	0.009157706
163	0x3bee889c	0.0072794687
164	0x3c470bb3	0.012148785
165	0xbab58c41	-0.0013851003
166	0x3acc105d	0.0015568841
167	0xbbbc0734	-0.0057381634
168	0xb9a1a0ef	-0.00030828218
169	0xbace0962	-0.0015719349
170	0xbb8f1d3f	-0.0043675
171	0xbcf77cad	-0.030210817
172	0xbcfd6d51	-0.030935915
173	0xbbafd4dc	-0.005365951
174	0xba165d57	-0.00057359546
175	0xbc0fb7d5	-0.008771856
176	0x3a97d769	0.0011584583
177	0x3b54d4ed	0.0032475546
178	0x3ba099e1	0.0049011563
179	0x3c49ecde	0.01232454
180	0x3a98e8bd	0.0011666041
181	0xbba45e89	-0.0050161523
182	0xbc16d291	-0.009205476
183	0xbc1d79db	-0.009611572
184	0xbbadd9dc	-0.005305512
185	0xbba0ace6	-0.0049034236
186	0x3a9fae6c	0.0012182719
187	0xbc509959	-0.012731873
188	0xbc8fd63f	-0.017558215
189	0xbc43d2e3	-0.011952135
190	0xbc3ea944	-0.011637036
191	0x3bde9313	0.006792435
192	0xbbefaf78	-0.0073146187
193	0xbc0b2ffa	-0.008495325
194	0xbb95644b	-0.004559075
195	0x3c245adf	0.010031431
196	0x3a52a2d1	0.0008035126
197	0x3c0afcf8	0.008483164
198	0x3c40f3a7	0.011776841
199	0xbc427013	-0.011867541
200	0xbc0603e1	-0.008179636
201	0xbb8e1f81	-0.0043372517
202	0xbbbb9901	-0.0057250266
203	0xba7cce24	-0.00096437545
204	0x3bec2dd6	0.0072076125
205	0x3bae542e	0.0053200936
206	0xba972696	-0.0011531885
207	0xbbfb5c3b	-0.007670907
208	0xbb824c2e	-0.0039763665
209	0xbb72fef1	-0.0037078226
210	0x3a27516d	0.0006382678
211	0x3b0c1c7b	0.002137928
212	0xba4928b6	-0.0007673608
213	0x3ba5592c	0.0050460305
214	0x3bfa1a5b	0.0076325363
215	0xbb5c660f	-0.0033630168
216	0xbc0bfdae	-0.008544369
217	0x3b1a132f	0.002350997
218	0xbb3e1db7	-0.002900941
219	0xbc4f14bb	-0.01263922
220	0xbc51df74	-0.012809623
221	0xbbe8924d	-0.0070975185
222	0xbc320b8b	-0.01086701
223	0x3be596ea	0.0070065157
224	0xbbb4fc4a	-0.0055232393
225	0x3b23b246	0.0024978085
226	0x3b287a83	0.0025707788
227	0x3be0f161	0.006864712
228	0x3c173bbe	0.009230552
229	0xbb04272c	-0.002016495
230	0xbb15a53f	-0.002283409
231	0x3c416629	0.011804142
232	0x3afffa1f	0.0019529498
233	0x3af83bf1	0.0018938762
234	0xbb623ba9	-0.0034520424
235	0x3bbde396	0.0057949526
236	0x3b2583e2	0.002525561
237	0xbb92b90d	-0.004477626
238	0xbb2c0b6b	-0.0026251923
239	0x37e93592	2.780071e-05
240	0x3ab2076e	0.0013582536
241	0xbbb55612	-0.005533942
242	0xbc29615b	-0.010338153
243	0xbb838a68	-0.004014302
244	0xbaa961a1	-0.0012922772
245	0x3bba2dbb	0.005681721
246	0x3b1553f0	0.0022785626
247	0xbb0d3782	-0.0021547978
248	0x3aee4c83	0.0018180761
249	0xbb7923b6	-0.003801567
250	0xbbc46064	-0.005992936
251	0xbb914312	-0.004433044
252	0xbc472c2c	-0.0121565275
253	0xbb932f47	-0.00449172
254	0x3bf51e74	0.007480437
255	0x3c0f484b	0.008745263
